…
    "for layer in model.layers:\n",
    "    print(str(layer.name) + ': input shape: ' + str(layer.input_shape) + ' output shape: ' + str(layer.output_shape))"
   ]
  },
  {
   "cell_type": "code",
   "execution_count": 555,
   "metadata": {},
   "outputs": [
    {
     "name": "stdout",
     "output_type": "stream",
     "text": [
      "_________________________________________________________________\n",
      "Layer (type)                 Output Shape              Param #   \n",
      "=================================================================\n",
      "1_conv_layer (Conv2D)        (None, 113, 26, 50)       300       \n",
      "_________________________________________________________________\n",
      "activation_86 (Activation)   (None, 113, 26, 50)       0         \n",
      "_________________________________________________________________\n",
      "max_pooling2d_79 (MaxPooling (None, 113, 13, 50)       0         \n",
      "_________________________________________________________________\n",
      "normalization_layer_89 (Norm (None, 113, 13, 50)       3         \n",
      "_________________________________________________________________\n",
      "2_conv_layer (Conv2D)        (None, 113, 9, 40)        10040     \n",
      "_________________________________________________________________\n",
      "activation_87 (Activation)   (None, 113, 9, 40)        0         \n",
      "_________________________________________________________________\n",
      "max_pooling2d_80 (MaxPooling (None, 113, 3, 40)        0         \n",
      "_________________________________________________________________\n",
      "normalization_layer_90 (Norm (None, 113, 3, 40)        3         \n",
      "_________________________________________________________________\n",
      "3_conv_layer (Conv2D)        (None, 113, 1, 20)        2420      \n",
      "_________________________________________________________________\n",
      "activation_88 (Activation)   (None, 113, 1, 20)        0         \n",
      "_________________________________________________________________\n",
      "normalization_layer_91 (Norm (None, 113, 1, 20)        3         \n",
      "_________________________________________________________________\n",
      "reshape_3 (Reshape)          (None, 1, 2260)           0         \n",
      "_________________________________________________________________\n",
      "dense_7 (Dense)              (None, 1, 400)            904400    \n",
      "=================================================================\n",
      "Total params: 917,169\n",
      "Trainable params: 917,169\n",
      "Non-trainable params: 0\n",
      "_________________________________________________________________\n"
     ]
    }
   ],
   "source": [
    "model.summary()"
   ]
  },
  {
   "cell_type": "code",
   "execution_count": null,
   "metadata": {},
…
